_________________________________________________________________
Layer (type)                 Output Shape              Param #   
=================================================================
embedding_1 (Embedding)      (None, 50, 100)           40000200  
_________________________________________________________________
lstm_1 (LSTM)                (None, 50, 50)            30200     
_________________________________________________________________
lstm_2 (LSTM)                (None, 50)                20200     
_________________________________________________________________
dense_1 (Dense)              (None, 50)                2550      
_________________________________________________________________
dense_2 (Dense)              (None, 400002)            20400102  
=================================================================
Total params: 60,453,252
Trainable params: 60,453,252
Non-trainable params: 0
_________________________________________________________________
Enter the seed text: kat if i was bianca , it would be , `` any school you want , precious . do n't forget tiara . '' they both look up as patrick enters . he walks up to the counter to place his order . mandella leans toward kat with the glow
…
