__________________________________________________________________________________________________
Layer (type)                    Output Shape         Param #     Connected to                     
==================================================================================================
input_1 (InputLayer)            (None, 20)           0                                            
__________________________________________________________________________________________________
embedding_1 (Embedding)         (None, 20, 100)      40000000    input_1[0][0]                    
__________________________________________________________________________________________________
lstm_1 (LSTM)                   (None, 20, 50)       30200       embedding_1[0][0]                
__________________________________________________________________________________________________
lstm_2 (LSTM)                   (None, 50)           20200       lstm_1[0][0]                     
__________________________________________________________________________________________________
input_2 (InputLayer)            (None, 20)           0                                            
__________________________________________________________________________________________________
concatenate_1 (Concatenate)     (None, 70)           0           lstm_2[0][0]                     
                                                                 input_2[0][0]                    
__________________________________________________________________________________________________
dense_1 (Dense)                 (None, 50)           3550        concatenate_1[0][0]              
__________________________________________________________________________________________________
dense_2 (Dense)                 (None, 400000)       20400000    dense_1[0][0]                    
==================================================================================================
Total params: 60,453,950
Trainable params: 60,453,950
Non-trainable params: 0
__________________________________________________________________________________________________
Enter the seed text: kat if i was bianca , it would be , `` any school you want , precious . do n't
…
